assets/asr_en/decoder-epoch-99-avg-1.int8.onnx (onnx, 539246 bytes, 4 tensors)

decoder.conv.weight f4 [512, 4, 2]
000000 77 f1 3d 3c 0d 47 a8 bd 34 3e 8f 3c 6c fe 7f 3d
       0.011593214 -0.08216677 0.017485715 0.062498495
000010 14 03 33 bc 2b 0e cd bc f4 ae 57 3d 94 97 9c 3c
       -0.010926027 -0.02503117 0.052657083 0.019115247
000020 69 9b 52 3c d0 8a b0 bc 9d e7 41 3b 17 2c b0 bb
       0.0128544355 -0.021550566 0.0029587515 -0.0053763497
000030 49 53 9e 3c df b5 f8 bd 3e c8 02 3d a3 ed e7 b9
       0.019326823 -0.12144064 0.031929247 -0.00044236807
000040 6c f7 8a 3a 05 f0 f5 3c 71 c5 ad 3b ae 65 13 bc
       0.0010602302 0.030021677 0.005303078 -0.00899641
000050 ec 05 2d bd 23 f3 5b bd 29 08 3e bc ef 2f 6d 3c
       -0.042241976 -0.05369867 -0.011598625 0.01447676
000060 fc 84 a6 3a db 12 51 3c 42 23 54 3c e7 02 6a 3d
       0.0012704427 0.012760843 0.012947859 0.057131674
000070 80 6a 17 bc 60 ef ff bc 5f d1 a3 bc 30 01 3b bc
       -0.0092417 -0.031242073 -0.019997297 -0.011413857
000080 c3 89 9e bb 24 3f 5e 3c 4e 33 89 3c 3e 6c 41 bd
       -0.0048382 0.013564859 0.016748097 -0.04722237
000090 cc 3e f8 bd 8c ba 37 be 69 df 54 3c 95 e4 9c 3c
       -0.121213526 -0.17942256 0.012992718 0.019151965
0000a0 dd 37 67 3c 24 de 74 3b 9f bf 58 bd 53 8e 11 bd
       0.01411244 0.0037363851 -0.05291712 -0.03553612
0000b0 a6 6e 7c bd f8 76 19 be 7b 7b f7 bc cc bd 65 3c
       -0.06162896 -0.14986789 -0.030210247 0.014022302
0000c0 f5 16 82 3c 92 13 f7 bc 51 60 ba 3b fc 49 12 bd
       0.015880087 -0.030160699 0.0056877513 -0.03571509
0000d0 d9 1e d3 bd df aa f9 bd 9b db 00 ba cb cd 26 bd
       -0.10308618 -0.12190794 -0.0004915536 -0.040723603
0000e0 4d 90 fc 3c 95 7b 98 3d 44 44 81 3c 66 b4 4a bd
       0.030830527 0.074454464 0.015779622 -0.049488448
0000f0 8b 69 d6 bd d7 21 da bd 73 7e e8 bc 9f d4 bf 3c
       -0.104693495 -0.10650986 -0.028380608 0.023416815
000100 27 8a 96 3b f0 d1 80 bc 17 a4 41 3c e0 d2 d2 bd
       0.0045941058 -0.015725106 0.011818907 -0.102941275
000110 7c 0d 99 bc 30 8b 85 3d 67 d9 18 3c 67 90 5d 3d
       -0.018683188 0.065206885 0.0093291765 0.05409279
000120 fd 4f 84 bd 2c 91 ea bc a6 7b b4 bc fa a7 16 be
       -0.06460569 -0.028633676 -0.022031616 -0.14712515
000130 08 22 94 3c 23 7c 2b bd fa 39 3b 3d a6 9e d9 3d
       0.018082634 -0.041866433 0.045709588 0.10625963
000140 70 68 29 3d 01 ab d4 bc 30 7d e7 bd 75 56 aa bd
       0.041359365 -0.025960447 -0.113031745 -0.083172716
000150 b9 87 12 3c 98 96 78 bd 6c bb 43 3d eb fd cf 3d
       0.008943492 -0.060690492 0.04778616 0.10155853
000160 3d 96 f3 bc 0a 8c e4 bb 83 af 86 bd 39 42 f7 bc
       -0.029734725 -0.006974702 -0.06576445 -0.030182945
000170 df 56 0d bc 64 80 32 bb 88 08 1f bc fb 62 e2 3d
       -0.008626669 -0.0027237171 -0.009706624 0.11054035
000180 42 71 33 3d 7c 88 d4 bb 2a a4 b6 bd db 10 4e be
       0.043809183 -0.006485997 -0.089180306 -0.20123617
000190 8a 92 ea 3c b2 26 a6 3d 0a fc ef 3d 68 4d bd 3d
       0.028634328 0.08112849 0.117179945 0.0924328
0001a0 cb e7 e5 39 08 d4 51 bb ed 75 53 3c 3e b0 10 be
       0.00043850983 -0.003201725 0.012906534 -0.14129731
0001b0 c6 19 3b 3c 38 a7 45 bd e5 3c 30 bc ee fc d4 3d
       0.011419719 -0.048255175 -0.010756706 0.10399805
0001c0 ac 5e 22 3d a1 78 99 bc da ce 08 be 34 61 cf bd
       0.039641067 -0.018734278 -0.13360158 -0.10125962
0001d0 dd 28 52 3c 1e cb 73 3d af 35 0a 3d 20 e1 23 3e
       0.012827125 0.05951988 0.033742603 0.16003847
0001e0 88 a6 99 bb ba 28 1d bd cf 2b 98 bd 40 bf 0c be
       -0.0046890415 -0.038368918 -0.07430231 -0.13744831
0001f0 f5 46 f5 bc 36 0a c8 3c f4 72 90 3d 9f 5d 86 3d
       -0.029941062 0.024418931 0.070531756 0.065608256
000200 c1 c6 59 3d b0 36 6a 3d 38 89 9c 3c 15 23 76 3d
       0.053168062 0.05718106 0.0191084 0.06009205
000210 63 a5 64 bc a9 c0 a8 3c ae f9 3e bc 42 2c 08 bd
       -0.013955447 0.02059968 -0.011656208 -0.033245333
000220 87 d5 64 3c 1c 76 b2 3c ae 2a 04 3b bb b6 8f ba
       0.0139669245 0.021784835 0.002016704 -0.0010964492
000230 13 51 fa 3c 9e 0f b2 3a ed 30 01 bd b1 e2 b0 bd
       0.030556237 0.0013584977 -0.0315408 -0.08636988
000240 6e 50 9d 3d 51 43 fb 3d 5c a0 b5 3b a4 23 88 bb
       0.07681356 0.12268699 0.005542798 -0.0041546393
000250 02 6c 31 bd f2 13 59 3d c7 b9 d6 39 c4 47 3b 3b
       -0.043315895 0.052997537 0.00040955676 0.0028576711
000260 64 1a aa bc 37 cd a4 3d 24 03 d9 3c d7 14 82 bb
       -0.020764537 0.08046954 0.026490755 -0.0039697695
000270 bb 1e 7a bb b7 af da 3c 19 29 bb 3c 08 2f a6 bd
       -0.003816529 0.026695115 0.022846745 -0.08114439
000280 4a cd 29 bc fe bb 94 bc 2f 99 63 bc b8 50 c5 3d
       -0.010363886 -0.018156048 -0.013891502 0.096345365
000290 0a 03 95 3c 06 d8 d0 3c d4 0b cd 3c b0 04 de 3c
       0.018189926 0.025493633 0.025030054 0.027101845
0002a0 08 14 90 3d fc 27 86 3d ca 43 53 3d 20 22 88 3d
       0.07035071 0.06550595 0.05157832 0.06647134
0002b0 60 57 84 3c 59 f7 0d 3e 22 83 92 3d ad ce 4b 3d
       0.016154945 0.13863887 0.07153918 0.04975765
0002c0 44 b7 45 3d 16 f6 9a 3c 10 75 49 3d 0d 6d 12 3d
       0.04827048 0.018916171 0.049183905 0.03574853
0002d0 50 34 e0 3c 29 9e 84 3d 1a c2 52 bc 77 4f c5 bc
       0.027368695 0.06475479 -0.01286366 -0.024085743
0002e0 36 d0 82 3d a3 d3 dc 3d c0 c2 fc 3d e6 5e 11 b6
       0.06387369 0.10782554 0.12341833 -2.1661922e-06
0002f0 d0 b1 04 3d 49 ec 79 3d 13 36 05 3d 2d ee ac 3c
       0.032396138 0.061016355 0.032522272 0.021109665
000300 51 78 24 3d 45 01 f3 bc 50 ad e8 3d dd 19 58 3d
       0.040153805 -0.029663691 0.11361182 0.05275904
000310 66 4b 87 3c 8a 4e 67 bd ab 99 67 3c e1 2f a2 3d
       0.016515445 -0.056471385 0.014135758 0.079192884
000320 2c 08 ef 3a a4 5b 4e bd b7 8d be 3d e0 3e 26 3e
       0.0018236688 -0.050380364 0.09304374 0.16234922
000330 db 5f fa 3c fe 02 7d bc 7f cb b8 3d d9 90 2f 3d
       0.030563286 -0.015442608 0.09023189 0.042862747
000340 ee ad a5 3c d5 d8 a7 bc da 12 1e 3e 1b 6a fa 3d
       0.020224538 -0.020489136 0.15436879 0.12227269
000350 a3 e1 82 bd 8f 0a ce bc 6d 8d 89 3d 37 4a 0e 3e
       -0.06390693 -0.02515152 0.06716428 0.13895498
000360 e9 e9 f7 3b 53 df 25 3d 08 75 d5 b9 6c b5 41 3b
       0.007565726 0.04049618 -0.0004071372 0.0029557599
000370 ee 49 df bc e2 31 a0 bc 1a f7 d3 bb bb a8 83 3d
       -0.027256932 -0.019555036 -0.006468666 0.06428667
000380 b7 be e8 3a 36 96 bd bc b3 34 15 3c 72 16 ad 3c
       0.0017757033 -0.023142915 0.009106803 0.021128867
000390 1a c0 d3 bb 52 50 4d 3d 21 fc b2 bc 1d 8d cd bd
       -0.0064621093 0.050125428 -0.02184874 -0.10036681
0003a0 a4 de 9a 3c 5d e1 70 bd f6 c6 c3 3c f6 a5 9b 3d
       0.018904991 -0.058808673 0.023898583 0.07600014
0003b0 56 f6 ba 3d 4e 65 7d 3d 96 1f 8a bd 19 bb c9 bc
       0.09129016 0.06186419 -0.06744306 -0.024625348
0003c0 89 c5 d2 bc 14 8b 83 bd 8a ad 39 bd fd 31 ab 3b
       -0.025728958 -0.064230114 -0.045331515 0.005224465
0003d0 a0 55 91 3c 41 97 29 3e 6b c9 8f bd 9a 9c 32 bd
       0.017741024 0.16561605 -0.07020839 -0.04360638
0003e0 a8 e9 b6 bc bb f6 cc bc fe 1e e0 bc a7 70 9c 3d
       -0.022328213 -0.025019994 -0.027358528 0.07638674
0003f0 7e bd 04 3e 40 a7 25 3e b7 b9 b1 bd 82 f7 1b bd
       0.1296291 0.16177082 -0.086780004 -0.03807784

decoder_proj.bias f4 [512]
000000 8a a1 6e 3c 6a 34 47 bf fc 62 85 bc 91 0e ff 3e
       0.014564881 -0.7781435 -0.016282551 0.498158
000010 5c 33 c0 3d c0 02 be 3f e1 56 04 3e 59 26 f0 bc
       0.09384796 1.4844589 0.12923767 -0.02931516
000020 93 06 ff 3e c2 5d cb 3d ca 2a 8f bd 54 05 4b be
       0.49809703 0.09929992 -0.06990583 -0.19826251
000030 5d 49 53 be ce 28 da bd 16 a5 43 bd a8 b7 39 3e
       -0.20633455 -0.10652314 -0.04776486 0.18136466
000040 ec a0 1f 3e 3e 1c ae bd 6e d8 16 bd 7a 44 b2 bf
       0.1558873 -0.085014805 -0.036827497 -1.3927147
000050 09 cd 26 be 55 31 f6 bd 21 dd 3e 3e 5d df 9a bc
       -0.16289152 -0.12021128 0.18639041 -0.018905336
000060 4e e3 a8 bf 12 3c 62 be 4c 9c 11 bf 7d ac 84 bd
       -1.3194368 -0.22093228 -0.56879115 -0.06478212
000070 2c 8e 43 3f 99 2f d0 3c 1b f2 20 3f 9a e8 74 bd
       0.7638881 0.025413321 0.62869424 -0.05979214
000080 44 a4 45 3e fd 20 94 3d 75 bd 0e 3d 5a c3 10 bf
       0.19300944 0.072328545 0.03484865 -0.5654808
000090 a2 3e 69 3e e3 39 20 be 92 d3 19 bf d3 72 9d 3e
       0.22777799 -0.15647082 -0.60088456 0.30751666
0000a0 6c 44 99 be 48 38 9a 3e bd dd 9c 3e b3 11 1d 3f
       -0.29935014 0.30121064 0.30637923 0.6135513
0000b0 c1 c3 d9 bf eb cd ee 3d 1e c5 25 bd 9e 2a 24 3f
       -1.7012864 0.116603695 -0.04047119 0.6412753
0000c0 8b dd 20 be 44 f9 f3 3d 7e 26 12 bf 64 62 af 3d
       -0.15709512 0.11912778 -0.57089984 0.085636884
0000d0 fe 7a 68 3e 61 4f 29 3d 8f 24 87 be 27 7f 64 3e
       0.22703168 0.041335467 -0.2639508 0.2231413
0000e0 69 d9 5a be 07 f5 82 3f a1 dc c3 3d ec 91 89 bd
       -0.21371998 1.0231026 0.09563566 -0.067172855
0000f0 f6 27 9f 3f c1 a0 af 3e fe ce 13 be 64 f1 53 bf
       1.243407 0.34302333 -0.1443443 -0.8279021
000100 ff 62 08 be 82 4d 82 3e e0 e8 2b 3e c2 e4 62 3d
       -0.13319014 0.2544976 0.16788054 0.05539394
000110 1d 0a 63 3d b6 33 44 3e 13 ae 87 bf 2f 4c 8c 3e
       0.055429567 0.19160351 -1.0599998 0.27401873
000120 63 a8 b7 bf a8 1b af 3d ea e6 8c 3e bf f2 b0 bb
       -1.4348263 0.08550197 0.27519923 -0.0054000313
000130 5c 75 de bd e5 d9 21 3e 7e 4b 62 3f 53 9d c6 be
       -0.10862228 0.15805776 0.8839644 -0.38791904
000140 b2 e7 64 3f 9c c1 31 bf a4 4d 2a 3f 55 93 97 3c
       0.8941604 -0.6943605 0.6652472 0.01850287
000150 ea df c6 be 98 42 4a be 12 00 bd 3d e6 d6 83 3f
       -0.38842708 -0.19751966 0.09228529 1.0299957
000160 c7 98 14 be 91 e9 5d bf f9 57 9b bd 87 ec bf 3e
       -0.14511405 -0.8668452 -0.07585139 0.37485144
000170 6a fb 84 bb 1f 9a 6a 3e 05 c1 a4 3e bf b5 b9 3d
       -0.004058291 0.22910355 0.32178512 0.090678684
000180 ea 35 2d be da 06 cf 3c ca 56 9d be dc 17 91 3e
       -0.16915098 0.025271822 -0.30730277 0.28338516
000190 2e 68 62 bd 02 28 3a 3c 66 84 a6 bf a6 e5 cd 3e
       -0.055275135 0.011362078 -1.3009155 0.4021427
0001a0 b8 32 2c 3e d9 4d 1d 3d a3 2b 4d 3e c3 63 5c be
       0.16816223 0.03840432 0.20036177 -0.21522431
0001b0 09 f8 13 3d 1d ad e2 3a b4 85 4d 3e 2f 98 4f bf
       0.036125217 0.0017294023 0.20070535 -0.8109159
0001c0 32 67 25 3f f3 b3 0e 3e 50 ae ee bd 70 82 e1 bd
       0.6461059 0.13935833 -0.11654341 -0.11011207
0001d0 b2 d6 b0 bc d4 7a 0d 3e 17 0d 5f 3e f4 78 5c 3e
       -0.02158675 0.13816386 0.21782337 0.21530515
0001e0 9b 37 2b bf 39 3e c7 3d e3 c6 4c bf 16 b6 b1 be
       -0.6688172 0.09728665 -0.7999098 -0.34709233
0001f0 ee 26 e3 3f b8 e7 06 bd 07 f9 55 3e ea 96 fd 3d
       1.7746255 -0.032935828 0.20895778 0.123823
000200 3a 61 c5 bd 98 b3 c8 3d eb 0f 37 3d 3f 30 ae bd
       -0.09637685 0.0979988 0.044692915 -0.08505296
000210 a4 a1 17 3d 65 1d 17 bf b9 81 4f be 32 21 03 3f
       0.037019387 -0.5902923 -0.20264329 0.5122253
000220 32 67 89 3e d9 83 9c bf 7e 93 53 3e 10 19 0c 3f
       0.26836544 -1.2227737 0.20661733 0.5472574
000230 3f e1 12 3e 84 5a 0c 3e 97 1b 45 be 69 e1 8e 3d
       0.14343737 0.13706404 -0.19248806 0.06976587
000240 12 85 f0 bc 8e 8d 83 bd 8d 4c e7 be 0f ee c2 bf
       -0.029360328 -0.06423484 -0.4517559 -1.52289
000250 98 22 c7 3e 05 43 cf 3f 3e 20 9c be 84 a7 3c 3a
       0.3889358 1.6192328 -0.3049335 0.00071965926
000260 fd 7a 2b 3c 40 e5 f0 3d 5d 21 0e 3f 02 af be be
       0.010466334 0.11762476 0.5551966 -0.37242895
000270 72 8b b9 bc a8 07 ad 3c 65 2b 86 bf 06 03 04 bd
       -0.0226495 0.021121815 -1.0481993 -0.032229446
000280 45 a2 19 3e b1 72 9f 3c 0d 0e 86 3e 08 34 1a bf
       0.15003307 0.019463869 0.26182595 -0.60235643
000290 de c9 a2 3d f3 62 80 bf 8f a1 99 3e b1 30 42 bd
       0.07948659 -1.0030197 0.30006072 -0.047409717
0002a0 df ec ca 3d c6 31 b4 bd c9 53 67 be f8 33 10 be
       0.09908461 -0.08798556 -0.22590555 -0.14082325
0002b0 04 0f 4d 3e 3d c3 5c 3d ce 07 c0 3f 38 7d 10 3e
       0.2002526 0.05389713 1.5002382 0.14110267
0002c0 62 41 3f 3f 54 20 f0 3f 3c 59 05 bf be 94 4a 3e
       0.7470914 1.8759866 -0.52089286 0.19783303
0002d0 e1 eb 96 3e 44 c6 43 bc 1d 83 3c 3e 72 f8 c1 3e
       0.29476836 -0.011949126 0.18409391 0.3788486
0002e0 47 bf 45 3e 89 12 73 bd 2c 98 b0 be 0d d5 48 bf
       0.19311248 -0.05934385 -0.34491098 -0.7845009
0002f0 6b f2 18 bf 55 3b 9b be e6 03 9c be 2c 83 ef 3b
       -0.597449 -0.30318704 -0.30471724 0.007309338
000300 d6 d2 0e 3d 65 c6 27 3f 9e 48 9f 3f ef 12 e1 3d
       0.034869038 0.655371 1.2444036 0.109899394
000310 1b ef 96 3e 04 c0 ac bd 25 78 49 bf 60 86 68 bd
       0.29479298 -0.084350616 -0.7869895 -0.056768775
000320 09 af 1b be 85 ae 13 be 62 0f 17 3e 8a c2 5a bf
       -0.1520349 -0.14422043 0.14751962 -0.85453093
000330 11 f1 ff be 97 df 9d be 36 9e 0f be 72 b3 dc 3c
       -0.49988607 -0.30834648 -0.14025196 0.026941035
000340 8f c6 52 bf bb ee 90 be e8 4a 7d be 78 5b a4 3e
       -0.82334226 -0.28307137 -0.24735606 0.32101035
000350 8c cf 90 bd 75 1d 99 3e 46 e7 d3 3e 7f c2 36 be
       -0.070708364 0.29905286 0.41387385 -0.17847632
000360 95 10 88 be c8 84 25 bf 54 2b 92 bf f3 5c 03 3d
       -0.2657515 -0.64655733 -1.1419473 0.032071065
000370 dd cf 41 be df ce 67 3e 76 5c 96 3f 2b d2 28 bf
       -0.1892695 0.22637509 1.1746967 -0.6594569
000380 4b 84 8a bd 78 d4 89 3d 5e b6 9b 3d b7 39 6f be
       -0.06763514 0.06729978 0.07603143 -0.2336186
000390 69 4a 98 3b c5 cc 26 be df 7c 83 3f 34 d5 58 3e
       0.0046475423 -0.16289051 1.0272483 0.2117508
0003a0 ee b7 6c 3e 5f 99 df 3e 5c 78 21 bf b6 dc ad bd
       0.23117039 0.436717 -0.6307428 -0.08489363
0003b0 8c b1 d7 3e 14 6f 3d be 28 2f 35 3e 65 70 35 3d
       0.42127645 -0.18499404 0.1769377 0.04429664
0003c0 54 eb ea 3e 16 69 0c be 55 06 8e 3b 5b b0 fe 3d
       0.45882666 -0.13711962 0.004334251 0.12435981
0003d0 16 f4 c9 bf f5 59 8d bd d8 e9 bd 3e d1 ab 09 3e
       -1.5777614 -0.069019236 0.3709247 0.13444449
0003e0 26 49 b0 bc 5a 6e 10 3f bb 6a ad be 93 aa c9 bd
       -0.021519255 0.56418383 -0.3387049 -0.098469876
0003f0 44 92 8d 3d c2 23 61 3e 13 9c 9b bd d7 ed 9e 3c
       0.069126636 0.21986297 -0.07598128 0.01940052

decoder.embedding.weight_quantized u1 [500, 512]
000000 80 80 80 80 80 80 80 80 80 80 80 80 80 80 80 80
       128 128 128 128 128 128 128 128 128 128 128 128 128 128 128 128
000010 80 80 80 80 80 80 80 80 80 80 80 80 80 80 80 80
       128 128 128 128 128 128 128 128 128 128 128 128 128 128 128 128
000020 80 80 80 80 80 80 80 80 80 80 80 80 80 80 80 80
       128 128 128 128 128 128 128 128 128 128 128 128 128 128 128 128
000030 80 80 80 80 80 80 80 80 80 80 80 80 80 80 80 80
       128 128 128 128 128 128 128 128 128 128 128 128 128 128 128 128
000040 80 80 80 80 80 80 80 80 80 80 80 80 80 80 80 80
       128 128 128 128 128 128 128 128 128 128 128 128 128 128 128 128
000050 80 80 80 80 80 80 80 80 80 80 80 80 80 80 80 80
       128 128 128 128 128 128 128 128 128 128 128 128 128 128 128 128
000060 80 80 80 80 80 80 80 80 80 80 80 80 80 80 80 80
       128 128 128 128 128 128 128 128 128 128 128 128 128 128 128 128
000070 80 80 80 80 80 80 80 80 80 80 80 80 80 80 80 80
       128 128 128 128 128 128 128 128 128 128 128 128 128 128 128 128
000080 80 80 80 80 80 80 80 80 80 80 80 80 80 80 80 80
       128 128 128 128 128 128 128 128 128 128 128 128 128 128 128 128
000090 80 80 80 80 80 80 80 80 80 80 80 80 80 80 80 80
       128 128 128 128 128 128 128 128 128 128 128 128 128 128 128 128
0000a0 80 80 80 80 80 80 80 80 80 80 80 80 80 80 80 80
       128 128 128 128 128 128 128 128 128 128 128 128 128 128 128 128
0000b0 80 80 80 80 80 80 80 80 80 80 80 80 80 80 80 80
       128 128 128 128 128 128 128 128 128 128 128 128 128 128 128 128
0000c0 80 80 80 80 80 80 80 80 80 80 80 80 80 80 80 80
       128 128 128 128 128 128 128 128 128 128 128 128 128 128 128 128
0000d0 80 80 80 80 80 80 80 80 80 80 80 80 80 80 80 80
       128 128 128 128 128 128 128 128 128 128 128 128 128 128 128 128
0000e0 80 80 80 80 80 80 80 80 80 80 80 80 80 80 80 80
       128 128 128 128 128 128 128 128 128 128 128 128 128 128 128 128
0000f0 80 80 80 80 80 80 80 80 80 80 80 80 80 80 80 80
       128 128 128 128 128 128 128 128 128 128 128 128 128 128 128 128

36_quantized i1 [512, 512]
000000 fd 07 01 03 06 f9 01 02 fe 01 01 05 fb 02 fb 05
       -3 7 1 3 6 -7 1 2 -2 1 1 5 -5 2 -5 5
000010 00 03 fc 03 04 fe 02 ff 00 02 00 00 06 fc fd ff
       0 3 -4 3 4 -2 2 -1 0 2 0 0 6 -4 -3 -1
000020 fc ff 02 ff fc fe 02 09 fb fe 04 fe 01 00 01 02
       -4 -1 2 -1 -4 -2 2 9 -5 -2 4 -2 1 0 1 2
000030 fe fd 00 02 ff 01 ff fe fd 02 01 fd ff fc ff 00
       -2 -3 0 2 -1 1 -1 -2 -3 2 1 -3 -1 -4 -1 0
000040 07 02 05 ff 00 00 02 ff ff fd 00 02 03 f9 00 03
       7 2 5 -1 0 0 2 -1 -1 -3 0 2 3 -7 0 3
000050 fc 02 04 01 00 fd 03 03 01 fc 01 00 ff 01 02 03
       -4 2 4 1 0 -3 3 3 1 -4 1 0 -1 1 2 3
000060 01 01 00 ff 06 ff 01 04 ff 01 fe 01 fc 01 fe 01
       1 1 0 -1 6 -1 1 4 -1 1 -2 1 -4 1 -2 1
000070 03 fe fc 05 02 00 08 fc 02 fe 00 07 fc 01 07 02
       3 -2 -4 5 2 0 8 -4 2 -2 0 7 -4 1 7 2
000080 00 02 fe fe fb 03 01 00 04 ff ff 02 ff 08 ff 00
       0 2 -2 -2 -5 3 1 0 4 -1 -1 2 -1 8 -1 0
000090 01 01 01 01 06 ff 00 fb 01 fe ff 00 fd ff fe 07
       1 1 1 1 6 -1 0 -5 1 -2 -1 0 -3 -1 -2 7
0000a0 ff fd 01 01 00 02 01 04 fb 01 06 02 00 00 fc 01
       -1 -3 1 1 0 2 1 4 -5 1 6 2 0 0 -4 1
0000b0 02 ff fb 00 05 fe f9 03 01 ff fd fb ff 02 01 ff
       2 -1 -5 0 5 -2 -7 3 1 -1 -3 -5 -1 2 1 -1
0000c0 01 ff 02 fc fc 00 01 01 04 01 fd 00 fb 03 01 fe
       1 -1 2 -4 -4 0 1 1 4 1 -3 0 -5 3 1 -2
0000d0 fd fa fc fe fe fe fb ff ff 03 01 ff fe ff 02 02
       -3 -6 -4 -2 -2 -2 -5 -1 -1 3 1 -1 -2 -1 2 2
0000e0 fd 00 ff fe fc fd fe 01 fb 02 01 03 02 01 03 00
       -3 0 -1 -2 -4 -3 -2 1 -5 2 1 3 2 1 3 0
0000f0 00 fd fe 03 05 ff fd 00 ff 02 00 00 03 ff 01 00
       0 -3 -2 3 5 -1 -3 0 -1 2 0 0 3 -1 1 0
